…
      "source": [
        "# show model architecture\n",
        "model"
      ],
      "metadata": {
        "colab": {
          "base_uri": "https://localhost:8080/"
        },
        "id": "YEUAUogNq0--",
        "outputId": "73c172cd-f5a8-4718-8a2f-b98ca51ad9d5"
      },
      "execution_count": 12,
      "outputs": [
        {
          "output_type": "execute_result",
          "data": {
            "text/plain": [
              "BertForSequenceClassification(\n",
              "  (bert): BertModel(\n",
              "    (embeddings): BertEmbeddings(\n",
              "      (word_embeddings): Embedding(32000, 768, padding_idx=0)\n",
              "      (position_embeddings): Embedding(512, 768)\n",
              "      (token_type_embeddings): Embedding(2, 768)\n",
              "      (LayerNorm): LayerNorm((768,), eps=1e-12, elementwise_affine=True)\n",
              "      (dropout): Dropout(p=0.1, inplace=False)\n",
              "    )\n",
              "    (encoder): BertEncoder(\n",
              "      (layer): ModuleList(\n",
              "        (0-11): 12 x BertLayer(\n",
              "          (attention): BertAttention(\n",
              "            (self): BertSelfAttention(\n",
              "              (query): Linear(in_features=768, out_features=768, bias=True)\n",
              "              (key): Linear(in_features=768, out_features=768, bias=True)\n",
              "              (value): Linear(in_features=768, out_features=768, bias=True)\n",
              "              (dropout): Dropout(p=0.1, inplace=False)\n",
              "            )\n",
              "            (output): BertSelfOutput(\n",
              "              (dense): Linear(in_features=768, out_features=768, bias=True)\n",
              "              (LayerNorm): LayerNorm((768,), eps=1e-12, elementwise_affine=True)\n",
              "              (dropout): Dropout(p=0.1, inplace=False)\n",
              "            )\n",
              "          )\n",
              "          (intermediate): BertIntermediate(\n",
              "            (dense): Linear(in_features=768, out_features=3072, bias=True)\n",
              "            (intermediate_act_fn): GELUActivation()\n",
              "          )\n",
              "          (output): BertOutput(\n",
              "            (dense): Linear(in_features=3072, out_features=768, bias=True)\n",
              "            (LayerNorm): LayerNorm((768,), eps=1e-12, elementwise_affine=True)\n",
              "            (dropout): Dropout(p=0.1, inplace=False)\n",
              "          )\n",
              "        )\n",
              "      )\n",
              "    )\n",
              "    (pooler): BertPooler(\n",
              "      (dense): Linear(in_features=768, out_features=768, bias=True)\n",
              "      (activation): Tanh()\n",
              "    )\n",
              "  )\n",
              "  (dropout): Dropout(p=0.1, inplace=False)\n",
              "  (classifier): Linear(in_features=768, out_features=2, bias=True)\n",
              ")"
            ]
          },
          "metadata": {},
          "execution_count": 12
        }
      ]
    },
    {
      "cell_type": "code",
      "source": [
        "# count No. of trainable parameters\n",
        "def count_parameters(model):\n",
        "    return sum(p.numel() for p in model.parameters() if p.requires_grad)\n",
…
            "Some weights of AlbertForSequenceClassification were not initialized from the model checkpoint at asafaya/albert-base-arabic and are newly initialized: ['classifier.bias', 'classifier.weight']\n",
            "You should probably TRAIN this model on a down-stream task to be able to use it for predictions and inference.\n"
          ]
        },
        {
          "output_type": "execute_result",
          "data": {
            "text/plain": [
              "AlbertForSequenceClassification(\n",
              "  (albert): AlbertModel(\n",
              "    (embeddings): AlbertEmbeddings(\n",
              "      (word_embeddings): Embedding(30000, 128, padding_idx=0)\n",
              "      (position_embeddings): Embedding(512, 128)\n",
              "      (token_type_embeddings): Embedding(2, 128)\n",
              "      (LayerNorm): LayerNorm((128,), eps=1e-12, elementwise_affine=True)\n",
              "      (dropout): Dropout(p=0, inplace=False)\n",
              "    )\n",
              "    (encoder): AlbertTransformer(\n",
              "      (embedding_hidden_mapping_in): Linear(in_features=128, out_features=768, bias=True)\n",
              "      (albert_layer_groups): ModuleList(\n",
              "        (0): AlbertLayerGroup(\n",
              "          (albert_layers): ModuleList(\n",
              "            (0): AlbertLayer(\n",
              "              (full_layer_layer_norm): LayerNorm((768,), eps=1e-12, elementwise_affine=True)\n",
              "              (attention): AlbertAttention(\n",
              "                (query): Linear(in_features=768, out_features=768, bias=True)\n",
              "                (key): Linear(in_features=768, out_features=768, bias=True)\n",
              "                (value): Linear(in_features=768, out_features=768, bias=True)\n",
              "                (attention_dropout): Dropout(p=0, inplace=False)\n",
              "                (output_dropout): Dropout(p=0, inplace=False)\n",
              "                (dense): Linear(in_features=768, out_features=768, bias=True)\n",
              "                (LayerNorm): LayerNorm((768,), eps=1e-12, elementwise_affine=True)\n",
              "              )\n",
              "              (ffn): Linear(in_features=768, out_features=3072, bias=True)\n",
              "              (ffn_output): Linear(in_features=3072, out_features=768, bias=True)\n",
              "              (activation): GELUActivation()\n",
              "              (dropout): Dropout(p=0, inplace=False)\n",
              "            )\n",
              "          )\n",
              "        )\n",
              "      )\n",
              "    )\n",
              "    (pooler): Linear(in_features=768, out_features=768, bias=True)\n",
              "    (pooler_activation): Tanh()\n",
              "  )\n",
              "  (dropout): Dropout(p=0.1, inplace=False)\n",
              "  (classifier): Linear(in_features=768, out_features=2, bias=True)\n",
              ")"
            ]
          },
          "metadata": {},
          "execution_count": 19
        }
      ]
    },
    {
      "cell_type": "code",
      "source": [
        "# No. of trainable parameters before freeze\n",
        "count_parameters(model)"
      ],
      "metadata": {
        "colab": {
          "base_uri": "https://localhost:8080/"
…
            "Some weights of DistilBertForSequenceClassification were not initialized from the model checkpoint at distilbert/distilbert-base-multilingual-cased and are newly initialized: ['classifier.bias', 'classifier.weight', 'pre_classifier.bias', 'pre_classifier.weight']\n",
            "You should probably TRAIN this model on a down-stream task to be able to use it for predictions and inference.\n"
          ]
        },
        {
          "output_type": "execute_result",
          "data": {
            "text/plain": [
              "DistilBertForSequenceClassification(\n",
              "  (distilbert): DistilBertModel(\n",
              "    (embeddings): Embeddings(\n",
              "      (word_embeddings): Embedding(119547, 768, padding_idx=0)\n",
              "      (position_embeddings): Embedding(512, 768)\n",
              "      (LayerNorm): LayerNorm((768,), eps=1e-12, elementwise_affine=True)\n",
              "      (dropout): Dropout(p=0.1, inplace=False)\n",
              "    )\n",
              "    (transformer): Transformer(\n",
              "      (layer): ModuleList(\n",
              "        (0-5): 6 x TransformerBlock(\n",
              "          (attention): MultiHeadSelfAttention(\n",
              "            (dropout): Dropout(p=0.1, inplace=False)\n",
              "            (q_lin): Linear(in_features=768, out_features=768, bias=True)\n",
              "            (k_lin): Linear(in_features=768, out_features=768, bias=True)\n",
              "            (v_lin): Linear(in_features=768, out_features=768, bias=True)\n",
              "            (out_lin): Linear(in_features=768, out_features=768, bias=True)\n",
              "          )\n",
              "          (sa_layer_norm): LayerNorm((768,), eps=1e-12, elementwise_affine=True)\n",
              "          (ffn): FFN(\n",
              "            (dropout): Dropout(p=0.1, inplace=False)\n",
              "            (lin1): Linear(in_features=768, out_features=3072, bias=True)\n",
              "            (lin2): Linear(in_features=3072, out_features=768, bias=True)\n",
              "            (activation): GELUActivation()\n",
              "          )\n",
              "          (output_layer_norm): LayerNorm((768,), eps=1e-12, elementwise_affine=True)\n",
              "        )\n",
              "      )\n",
              "    )\n",
              "  )\n",
              "  (pre_classifier): Linear(in_features=768, out_features=768, bias=True)\n",
              "  (classifier): Linear(in_features=768, out_features=2, bias=True)\n",
              "  (dropout): Dropout(p=0.2, inplace=False)\n",
              ")"
            ]
          },
          "metadata": {},
          "execution_count": 25
        }
      ]
    },
    {
      "cell_type": "code",
      "source": [
        "# No. of trainable parameters before freeze\n",
        "count_parameters(model)"
      ],
      "metadata": {
…
      "source": [
        "# show combine model\n",
        "combine_model"
      ],
      "metadata": {
        "colab": {
          "base_uri": "https://localhost:8080/"
        },
        "id": "RpCZlfyrtGSd",
        "outputId": "fcc8c167-a3b6-4ea9-abcc-7443de51f432"
      },
      "execution_count": 62,
      "outputs": [
        {
          "output_type": "execute_result",
          "data": {
            "text/plain": [
              "BertFeatureCombinedModel(\n",
              "  (bert): DistilBertModel(\n",
              "    (embeddings): Embeddings(\n",
              "      (word_embeddings): Embedding(119547, 768, padding_idx=0)\n",
              "      (position_embeddings): Embedding(512, 768)\n",
              "      (LayerNorm): LayerNorm((768,), eps=1e-12, elementwise_affine=True)\n",
              "      (dropout): Dropout(p=0.1, inplace=False)\n",
              "    )\n",
              "    (transformer): Transformer(\n",
              "      (layer): ModuleList(\n",
              "        (0-5): 6 x TransformerBlock(\n",
              "          (attention): MultiHeadSelfAttention(\n",
              "            (dropout): Dropout(p=0.1, inplace=False)\n",
              "            (q_lin): Linear(in_features=768, out_features=768, bias=True)\n",
              "            (k_lin): Linear(in_features=768, out_features=768, bias=True)\n",
              "            (v_lin): Linear(in_features=768, out_features=768, bias=True)\n",
              "            (out_lin): Linear(in_features=768, out_features=768, bias=True)\n",
              "          )\n",
              "          (sa_layer_norm): LayerNorm((768,), eps=1e-12, elementwise_affine=True)\n",
              "          (ffn): FFN(\n",
              "            (dropout): Dropout(p=0.1, inplace=False)\n",
              "            (lin1): Linear(in_features=768, out_features=3072, bias=True)\n",
              "            (lin2): Linear(in_features=3072, out_features=768, bias=True)\n",
              "            (activation): GELUActivation()\n",
              "          )\n",
              "          (output_layer_norm): LayerNorm((768,), eps=1e-12, elementwise_affine=True)\n",
              "        )\n",
              "      )\n",
              "    )\n",
              "  )\n",
              "  (feature_extractor): Sequential(\n",
              "    (0): Linear(in_features=34, out_features=32, bias=True)\n",
              "    (1): ReLU()\n",
              "  )\n",
              "  (classifier): Linear(in_features=800, out_features=2, bias=True)\n",
              ")"
            ]
          },
          "metadata": {},
          "execution_count": 62
        }
      ]
    },
    {
      "cell_type": "code",
      "source": [
        "# No. of parameters before freeze\n",
        "count_parameters(combine_model)"
      ],
      "metadata": {
        "colab": {
          "base_uri": "https://localhost:8080/"
…
